new_policy.pth (torch_old, 18688 bytes, 28 tensors)

actor.sigma_param f4 [9, 1]
00000000: 653c 61c0 2e77 60c0 5b98 5bc0 3bb8 67c0
00000010: f988 67c0 2d45 63c0 e75d 62c0 d9a8 6ac0
00000020: aefe 61c0
-3.5193112 -3.5072742 -3.431174 -3.6206195 -3.6177351 -3.5510972 -3.5369813 -3.6665556
-3.5311694

actor.preprocess.model.laplacian f4 [9, 9]
00000000: abaa 2a3f 0000 0000 0000 0000 abaa aabe
00000010: 0000 0080 0000 0080 abaa aabe 0000 0080
00000020: 0000 0080 0000 0000 abaa 2a3f 0000 0000
00000030: 0000 0080 abaa aabe 0000 0080 0000 0080
00000040: abaa aabe 0000 0080 0000 0000 0000 0000
00000050: abaa 2a3f 0000 0080 0000 0080 abaa aabe
00000060: 0000 0080 0000 0080 abaa aabe abaa aabe
00000070: 0000 0080 0000 0080 abaa 2a3f 0000 0000
00000080: 0000 0000 abaa aabe 0000 0080 0000 0080
00000090: 0000 0080 abaa aabe 0000 0080 0000 0000
000000a0: abaa 2a3f 0000 0000 0000 0080 abaa aabe
000000b0: 0000 0080 0000 0080 0000 0080 abaa aabe
000000c0: 0000 0000 0000 0000 abaa 2a3f 0000 0080
000000d0: 0000 0080 abaa aabe abaa aabe 0000 0080
000000e0: 0000 0080 abaa aabe 0000 0080 0000 0080
000000f0: abaa 2a3f 0000 0000 0000 0000 0000 0080
00000100: abaa aabe 0000 0080 0000 0080 abaa aabe
00000110: 0000 0080 0000 0000 abaa 2a3f 0000 0000
00000120: 0000 0080 0000 0080 abaa aabe 0000 0080
00000130: 0000 0080 abaa aabe 0000 0000 0000 0000
00000140: abaa 2a3f
0.6666667 0.0 0.0 -0.33333334 -0.0 -0.0 -0.33333334 -0.0
-0.0 0.0 0.6666667 0.0 -0.0 -0.33333334 -0.0 -0.0
-0.33333334 -0.0 0.0 0.0 0.6666667 -0.0 -0.0 -0.33333334
-0.0 -0.0 -0.33333334 -0.33333334 -0.0 -0.0 0.6666667 0.0
0.0 -0.33333334 -0.0 -0.0 -0.0 -0.33333334 -0.0 0.0
0.6666667 0.0 -0.0 -0.33333334 -0.0 -0.0 -0.0 -0.33333334
0.0 0.0 0.6666667 -0.0 -0.0 -0.33333334 -0.33333334 -0.0
-0.0 -0.33333334 -0.0 -0.0 0.6666667 0.0 0.0 -0.0
-0.33333334 -0.0 -0.0 -0.33333334 -0.0 0.0 0.6666667 0.0
-0.0 -0.0 -0.33333334 -0.0 -0.0 -0.33333334 0.0 0.0
0.6666667

actor.preprocess.model.D f4 [3, 3, 3]
00000000: cdcc 4c3d 0000 0000 0000 0000 0000 0000
00000010: cdcc 4c3d 0000 0000 0000 0000 0000 0000
00000020: cdcc 4c3d cdcc 4c3d 0000 0000 0000 0000
00000030: 0000 0000 cdcc 4c3d 0000 0000 0000 0000
00000040: 0000 0000 cdcc 4c3d cdcc 4c3d 0000 0000
00000050: 0000 0000 0000 0000 cdcc 4c3d 0000 0000
00000060: 0000 0000 0000 0000 cdcc 4c3d
0.05 0.0 0.0 0.0 0.05 0.0 0.0 0.0
0.05 0.05 0.0 0.0 0.0 0.05 0.0 0.0
0.0 0.05 0.05 0.0 0.0 0.0 0.05 0.0
0.0 0.0 0.05

actor.preprocess.model.phi.cvx_field._quad_param f4 [3]
00000000: ae94 8239 0cdb c33f 745d 8937
0.00024906307 1.5301223 1.637519e-05

actor.preprocess.model.phi.cvx_field._y_layers.0.weight f4 [32, 3]
00000000: 5a61 2a3c 7699 99bc 6974 c73c 87f7 4f3c
00000010: 3854 803c 9bb8 0e3c 0806 9d3c 5e53 84bc
00000020: d653 333d cfd8 543c 7ef2 803c 0319 2b3c
00000030: 2edd 7f3c a9ba 58bd 31bd c9bd 73c1 543b
00000040: 6620 32bd 143a 143d 6ec0 b5bd 28df 853c
00000050: 94ca c73d a825 05bd 4c67 7cbd 16fc 4f3d
00000060: 5f0f 2c3c b0ca 023d 2020 cf3b 98f2 1d3c
00000070: 890f 113d 62fb ec3b 0588 263c 36af d03c
00000080: 2054 2c3b e8c8 503c 7364 813c 9421 0c3c
00000090: 8332 9c3c b032 84bc 631f 313d 75f0 973c
000000a0: cb0a 7c3c 1205 0e3d 30d8 b83c 7385 803c
000000b0: 782f 5d3d d222 913c 396b 75bc 30f3 1b3d
000000c0: f36e 323c 495f ba3c b838 14bd 9170 953b
000000d0: 3a60 f43c df4e ddbb 2cdb 91b9 ce94 59bd
000000e0: f538 233d f6e2 863c d86a 783c 1cf3 c23c
000000f0: a13c 9e3c c1ee 84bc 78fe 383d b4a5 0dbd
00000100: 6ca0 7bbd f8a8 4f3d 747c 8b3c 061f 9fbc
00000110: d3fe 9abd 57d6 333c 99b3 323d feff 1f3c
00000120: 9758 923c cd37 7ebc ad49 1e3d a0cc 05bd
00000130: 05a3 e13a 02ba 0e3d b701 3f3c 4ced 343d
00000140: 0400 2e3c 2eae 88b8 f142 57bd fc3a 233d
00000150: d7a4 8e3c b913 7ebc 20ba 193d 1eb2 993b
00000160: 26ed f33c af29 d8bb 3d72 873c 70dd 773c
00000170: 8936 ce3c 95da 7d3c 59d5 763c 12f5 a73c
0.010399187 -0.018749934 0.0243475 0.012693292 0.015665159 0.008711006 0.019167915 -0.016153034
0.043781124 0.012991144 0.01574063 0.010442975 0.015616698 -0.052912388 -0.098505385 0.0032463938
-0.04348793 0.0361882 -0.08874594 0.01634176 0.097554356 -0.032506615 -0.06162195 0.050777517
0.010501712 0.03193158 0.0063209683 0.009640358 0.035415206 0.0072321156 0.0101642655 0.025474172
0.002629526 0.012743212 0.015794968 0.0085529275 0.019067055 -0.016137451 0.043242823 0.018547276
0.015383433 0.034672804 0.022564024 0.015688634 0.054000348 0.017716799 -0.014979177 0.03807372
0.01089071 0.022750514 -0.036186904 0.004560538 0.02983104 -0.006753787 -0.0002781985 -0.053120427
0.03984924 0.016465645 0.015162192 0.023797564 0.01931602 -0.016227128 0.045164555 -0.034581855
-0.061432287 0.05069825 0.017027117 -0.019423973 -0.07568135 0.010976396 0.04362831 0.009765623
0.017864509 -0.015516234 0.03864448 -0.03266585 0.0017214721 0.03484536 0.011658124 0.044171616
0.010620121 -6.517429e-05 -0.052554075 0.039851174 0.017412586 -0.015507632 0.03753102 0.0046904227
0.029776167 -0.006596766 0.016533965 0.015128478 0.025172489 0.015494009 0.0150655145 0.0205026

actor.preprocess.model.phi.cvx_field._y_layers.1.weight f4 [32, 3]
00000000: dbb7 a8bd d545 3f3b f5ed 21bd e5b6 7dbd
00000010: 1304 6f3d 2e8e 99bd dc25 a9bd fda5 c2bd
00000020: fff9 5cbd 87e9 bbbd dea4 2f3d 11b8 1abc
00000030: de1e 81bd 781b 353d 1c8d b3bd 2631 91bd
00000040: a57f 37bc 2e32 97bd 402d a8bd 2871 e3bc
00000050: fa61 2bbd 0b9f 62bd 8c0d ad3d 39e6 a3bd
00000060: 3072 63bd 47fd a43d cec8 c0bd ab5e 78bd
00000070: c607 8c3d c3a0 c7bd 5836 92bd d089 36bc
00000080: 7b02 99bd 96f5 91bd 0fd5 84bb 46a8 9bbd
00000090: d0b6 babd 4947 283d 5968 2bbc ec1e 74bd
000000a0: 5019 813d ef18 c1bd fdf7 76bd a32c 8b3d
000000b0: 247f c7bd eed3 70bd d2cd 883d 4c8f bebd
000000c0: de31 153e 41f1 22be 1545 85be fab1 8ebd
000000d0: 771a 08bc f3f8 7cbd df06 8cbd dfd8 b33b
000000e0: e154 73bd 9af5 98bd 3766 d8bb 8b23 a4bd
000000f0: 8246 81bd 2463 333d fd77 b2bd 0c73 b5bd
00000100: c951 2c3d 8d38 92bc 4d9a 76bd 2d8e 653d
00000110: 6455 9bbd 1647 8fbd 4756 943a 2bfa 9bbd
00000120: 2aa0 96bd 2001 06bd 10d7 66bd 58a8 6bbd
00000130: 19db b53d 7822 9ebd 9794 99bd 35cd c8bb
00000140: f78c a5bd 3e00 6fbd f561 8b3d 8b35 c2bd
00000150: 5961 6bbd c2df a93d 3d55 b3bd fa7b 9fbd
00000160: a537 a5bc 4794 a5bd 61c7 73bd bd55 783d
00000170: cc30 bbbd 0aca c1bd 36de 1d3d 6bb1 abbb
-0.08238193 0.002918591 -0.039533574 -0.061942 0.058353495 -0.07497822 -0.08259174 -0.09504316
-0.053949352 -0.09175401 0.04288184 -0.009443299 -0.063047156 0.04421565 -0.08767149 -0.070894524
-0.011199866 -0.07382618 -0.08211756 -0.027763918 -0.041841485 -0.055327456 0.084498495 -0.08002896
-0.05552882 0.08056121 -0.094133005 -0.060637157 0.0683742 -0.0974746 -0.071392715 -0.0111412555
-0.07471176 -0.0712692 -0.004053719 -0.07600455 -0.091169 0.041083608 -0.01046189 -0.059599802
0.06303656 -0.09428584 -0.060295094 0.06795623 -0.09741047 -0.058795862 0.06679882 -0.093046755
0.14569804 -0.15912344 -0.26029268 -0.0696754 -0.008307091 -0.061760854 -0.06837248 0.0054884995
-0.05940712 -0.0746872 -0.006603982 -0.08014592 -0.063122764 0.04379572 -0.08714292 -0.08859834
0.042070184 -0.017849231 -0.060205746 0.056043793 -0.07584646 -0.069959804 0.0011317217 -0.07616075
-0.073547676 -0.032715917 -0.056357443 -0.057533592 0.0887968 -0.07721418 -0.074990444 -0.006127978
-0.080835275 -0.05834984 0.06805793 -0.09482869 -0.057465885 0.082946315 -0.08756492 -0.077873185
-0.020168135 -0.08084922 -0.059516314 0.06062864 -0.09140167 -0.09462364 0.038541995 -0.0052396557

actor.preprocess.model.phi.cvx_field._y_layers.2.weight f4 [1, 3]
00000000: ffb4 133f c8c8 063e c5fb dd3e
0.57698053 0.1316253 0.43356147

actor.preprocess.model.phi.cvx_field._z_layers.0.weight f4 [32, 32]
00000000: 59e0 303e 6f33 933e 5e0c 373e 12a2 aa3e
00000010: 2a72 2f3e 4e57 2e3c 7b84 c43d fc6b b53d
00000020: a2a9 783e 89c4 ea3d 0f2b 803e 4e12 ae3d
00000030: a345 793e b1a1 363e 29f3 783e 8cb4 8a3e
00000040: 88cb d13d 2abd 503e e83e 183e 6937 883e
00000050: 0c2e 6f3e 23d4 023d b363 b43e 2917 f83d
00000060: c6de 8c3e f2b0 0e3c e713 1c3e efcc 073e
00000070: d777 933e 87c2 693e adcd 8a3e 9121 883e
00000080: fd95 383e e12e 723e 06d0 1f3e 4d84 8f3e
00000090: 820f 843e 66b4 8d3d 9d05 b43d dbec 263d
000000a0: 2a28 883e 2d94 0a3e 97b7 503e 8b2e bb3c
000000b0: 9830 583e dd6a 513e 7215 a33e e9a9 893e
000000c0: 7003 283e b298 5b3e 09b7 3c3e 97e8 853e
000000d0: efb6 5e3e 8283 583d 1a01 973e 1bfe eb3d
000000e0: b435 853e a32c 073d a407 d13d 6219 1b3e
000000f0: 7019 773e b816 683e 9f0f 8a3e 5027 863e
00000100: 44c1 303e 7640 7f3e 23b2 2b3e b942 a43e
00000110: 4b6b 7f3e 6b7e 9f3d 5fa4 f63d 88ea a33d
00000120: 0421 673e 9cc8 063e b118 893e 0f5e ff3d
00000130: 5899 613e f3e6 443e 37e3 b93e 9e96 8e3e
00000140: ec39 3f3e 3f1b 4f3e 6576 2a3e 045a 8c3e
00000150: 06c6 603e 9728 b63d c673 c13e f879 253d
00000160: ee38 8d3e 3c3d ad3d 10b5 1f3d 2f8e 213e
00000170: 12ec 813e ef45 2a3e f033 903e 1ebf 8a3e
00000180: 995e 283e ac57 923e 7734 563e 15cc b63e
00000190: 982c 513e 9d6c 363d f64f 233e 2109 8c3d
000001a0: aeb1 9a3e ebb3 d83d a26c 333e a25e c23d
000001b0: 8833 863e aedb 5c3e 918d aa3e f9cd 9d3e
000001c0: 3bdd 0c3e 8541 6d3e c4a5 283e 8797 973e
000001d0: 1ee9 833e d4c7 473d 1151 a63e ec3a 173e
000001e0: 5e50 a13e f046 6d3d 0832 473e 7600 0a3e
000001f0: e301 9b3e 2262 8e3e 93c1 9f3e 0a40 993e
00000200: f5f3 723e 4b84 293e 1a01 723e d22a 563e
00000210: 4a67 983e 83f9 0f3e b1e5 6c3c 9eb9 ff3d
00000220: 8031 2d3e c60e 463e 9d67 893e 01aa 05bb
00000230: f150 923e 789e 0d3e 395e bf3e 02f6 ab3e
00000240: 5348 8a3e 333b 323e 6c13 7a3e bfb8 383e
00000250: 1b20 913e 3bc9 0c3e 3bbf a53e d856 263d
00000260: 2a67 a93e 9c34 733c 8fee ad3d 902a 673e
00000270: 2f15 a13e 5f86 143e bed7 4d3e 895f 3f3e
00000280: 81f2 703e ca78 453e cde7 363e 1ea6 823e
00000290: 736a bf3e 131c 083e 1f4b 733d d100 0b3e
000002a0: 2893 493e e42d 443e 7fa9 a13e 0753 043d
000002b0: bbac 733e 7f95 1c3e cc05 b43e cb06 9a3e
000002c0: d7eb 853e b05c 203e 8c9d 6c3e 1c0b 5e3e
000002d0: 305f 743e 23b2 293e cd78 af3e 3d93 8a3d
000002e0: 0cb6 9b3e 7e11 f03c 3e74 b13d d7da 543e
000002f0: f1ef 8c3e 7c86 283e 600d 623e f58b 683e
00000300: a87b 413e eede 813e 8c79 1f3e 98c1 9f3e
00000310: 6fe1 0f3e 6041 4d3d 59a3 3a3e 2c5a 133d
00000320: 1945 483e 67f4 de3d 5340 773e 33f8 123e
00000330: db32 663e d05d 183e da89 683e 089a 903e
00000340: 154a 593d fc16 6a3e d68c 183e 1451 703e
00000350: 2fca 543e 47a1 483d c877 b53e e7a9 7c3d
00000360: 818f 8b3e b534 0b3e d1f2 763d 734c fe3d
00000370: 06c1 873e 63fe 373e 8af4 743e b0d1 733e
00000380: 69db 3e3e 4026 c63d 2e0e 2e3e 7a4f 1e3e
00000390: fdd3 853e 27eb 8b3d d052 a9bd be6f c83c
000003a0: 1447 2d3e 5bc9 393e c200 033e ff08 25be
000003b0: 56de 703e 54df e03d c6b3 7d3e 85a9 893e
000003c0: fb38 003e 70b9 d43d 370a 723e 2f03 4c3e
000003d0: 5725 653e aae3 efbd 59cc b83e 66db c53d
000003e0: 179f 703e 7258 03be c75e 0b3e 6598 443e
000003f0: 6171 8e3e c8f0 673e 123b 543e 5707 4a3e
0.17273082 0.28750178 0.17875811 0.33326775 0.17133394 0.010640932 0.09595581 0.08858487
0.2428346 0.11463267 0.2503285 0.08499585 0.2434297 0.17835118 0.24311508 0.2709087
0.10243899 0.2038466 0.14867747 0.26604775 0.23357409 0.03194059 0.35232314 0.121137924
0.27513713 0.008709179 0.15241967 0.1326177 0.28802368 0.22828113 0.27110043 0.2658811
0.18025966 0.23650695 0.15606698 0.28030625 0.25793082 0.06919174 0.08790133 0.040753227
0.26593143 0.13533087 0.20382534 0.022849342 0.21112287 0.20450921 0.318523 0.26887444
0.16407561 0.21444967 0.18429197 0.26154014 0.21749471 0.05285979 0.29493028 0.11523076
0.26017535 0.033001553 0.102065355 0.15146402 0.24130797 0.22664917 0.26965043 0.26201868
0.17261225 0.24926934 0.16767173 0.32082155 0.24943273 0.07787784 0.1204307 0.08003718
0.22571188 0.13162464 0.2677665 0.12469112 0.22031152 0.19228725 0.36306164 0.27849287
0.18674439 0.20225237 0.16646726 0.27412426 0.2195054 0.08894461 0.3778364 0.04039952
0.27582496 0.08458945 0.038991034 0.15776895 0.2537542 0.1662824 0.28164625 0.27098936
0.16442336 0.28582513 0.20918451 0.35702577 0.20427167 0.044537175 0.15948471 0.06837679
0.30213684 0.10581192 0.17521909 0.09490706 0.2621119 0.21568176 0.33311132 0.30821207
0.13756268 0.23169525 0.16469485 0.29607794 0.25763792 0.048774555 0.32483724 0.1476857
0.31506628 0.05792898 0.19452679 0.13476738 0.30274877 0.27809244 0.31202373 0.2993167
0.23725875 0.16554372 0.23633233 0.20914772 0.29766303 0.14060025 0.01445906 0.124865755
0.16913414 0.19341573 0.26836863 -0.002039552 0.28577378 0.13829982 0.37376574 0.33586127
0.27008304 0.17405395 0.24421471 0.18039225 0.28344807 0.13748638 0.3237246 0.040610164
0.3308652 0.014844086 0.08492767 0.2257483 0.31461474 0.14504384 0.2010183 0.18688788
0.23530008 0.19284359 0.17861862 0.25517362 0.37385902 0.1329196 0.059397813 0.1357453
0.19685042 0.19158131 0.31574628 0.032305744 0.2379636 0.15291403 0.35160673 0.30083308
0.26156494 0.15660357 0.23106974 0.21683925 0.23864436 0.1657186 0.3427185 0.06766365
0.30412328 0.029305216 0.086647496 0.20786606 0.2752681 0.16457552 0.22075415 0.2270964
0.18894827 0.25365394 0.1557371 0.31202388 0.1405084 0.050111175 0.18226375 0.035974666
0.19557609 0.1088646 0.24145631 0.14352493 0.22480337 0.14879537 0.22708836 0.28242517
0.053049166 0.2286033 0.14897475 0.23468429 0.20780252 0.04898193 0.35442948 0.06168547
0.27257922 0.13594325 0.06029016 0.12416925 0.26514453 0.17968135 0.23921409 0.23810458
0.18638386 0.09675264 0.16997597 0.15460005 0.26138297 0.06831961 -0.08267748 0.024467345
0.16921645 0.18143217 0.12793258 -0.16116713 0.23522314 0.109800965 0.2477561 0.26887146
0.12521736 0.10386932 0.23636709 0.1992309 0.22377525 -0.11713345 0.36093405 0.096609876
0.23498188 -0.12826708 0.13610373 0.19198759 0.27820876 0.22650445 0.20725659 0.19729362

actor.preprocess.model.phi.cvx_field._z_layers.1.weight f4 [1, 32]
00000000: 7ec2 bb3e 76ac ce3e 5dc1 0e3f 8162 a53e
00000010: 50b0 2a3f afda 213f 4699 d23e 272f e53e
00000020: bd77 f83e b434 2a3f bc68 233f be14 233f
00000030: 7f0a a53e 8715 283f 0f08 2a3f 43a0 063f
00000040: db4d 9e3e 1416 fc3e a65c f23e e3e1 363f
00000050: 7f1f 2b3f 5eaa a83e fb50 073f 9460 233f
00000060: 16b3 da3e eb12 e03e e882 353f 692c dc3e
00000070: d60f e53e 65ef 333f fc93 043f 5682 a33e
0.36671823 0.40365952 0.557638 0.32301715 0.6667528 0.6322431 0.41132563 0.44762537
0.48528853 0.6648667 0.63831687 0.63703525 0.3223457 0.6565785 0.66418546 0.5258829
0.30918774 0.49235594 0.4733631 0.71438426 0.66844934 0.3294248 0.5285794 0.6381924
0.42714757 0.43764433 0.7090287 0.43002632 0.44738644 0.7028716 0.51788306 0.31935376

critic.preprocess.model.model.0.weight f4 [32, 9]
00000000: e4c9 35be 408e ff3e 19dd eebe 7f8b 62bd
00000010: 4e79 16bf 96cb 48be 7be4 9dbe e8fa aabe
00000020: 0f8e 09bd 3da2 debd bf37 d7bd f633 02bf
00000030: 7066 993d 4571 133d 73d5 1fbe 1547 453e
00000040: 0638 86bd 4907 71be 133d 77bd 112d 8c3e
00000050: 1bf3 d53e 28eb 97be d15c 003f 31f8 683e
00000060: f3ef cdbd 50a3 05bc 93bd 743d 844e 8abd
00000070: 04ad abbe 39d4 7ebb b795 b9be 71f0 ccbe
00000080: f2a0 993d e131 c8bd cf7e d93b b001 36be
00000090: 2440 b53d 6097 ff3d 5c1f 413e 7f6e 903d
000000a0: 8595 84be 63ef 97bd 48f3 843e d349 8e3d
000000b0: 2410 85be f9c3 13be 626a a6be 73e1 ae3e
000000c0: 488c 86bd dd9c 35bd d2d0 d7bc 3462 49be
000000d0: aee7 963e 9f47 a8be d032 1ebe af4a 43be
000000e0: de9b 92be ee25 4abe a189 2dbf 2f0a d23d
000000f0: 8661 d3be 6f47 a83d 67da 413e 2541 f53e
00000100: dc01 adbe 7982 81be 6a6b 91be b7ee 933e
00000110: 532d 993d a5df 9abe 15ee df3d 00a9 7b3e
00000120: b43e 9abe 6981 883e edfd 11be f424 c63e
00000130: 7bab 2cbe 0d16 12be ee48 c9bd 57b8 c43d
00000140: 50eb 05be f3ae 48be 2a11 843e 0622 9c3e
00000150: f7a8 dfbd 7579 043e f3aa 17bd d664 073d
00000160: 956f fcbe 5a69 a6be af5a 56be 06df 9cbb
00000170: c8cf f23e 8a36 3ebe 0d31 b6be 8fa5 3ebb
00000180: 6905 22bd 2195 6ebe fb2f cf3e d086 bdbe
00000190: 7a3a 233f 5cb6 c13e 74c0 c33d b2df 11be
000001a0: 8077 17be b8da f6bd 01cb 8e3e 7c5c d33d
000001b0: 8ede 03be 84f3 233f e2ca 533d 2935 c5bc
000001c0: bbe6 1bbf 5c09 3f3e b6aa be3e de17 07bf
000001d0: d079 debc ce11 0e3f 26cf 85be 201f 1c3e
000001e0: b6f2 d3bd 96ed 3f3c e472 8c3e 9055 8cbe
000001f0: 666f 8cbe d8b8 223e e4b5 543c faf6 3c3e
00000200: 5a75 d93d 5394 fbbe ecfa 19be 0c2a 313e
00000210: 5b3f d4be b43b d5be 806e 653e 1841 b3be
00000220: e83d 4d3e 4098 733d af21 8d3d bb12 7e3c
00000230: dd78 363e 7302 403e 225d b0be c2b0 623e
00000240: 9488 4b3e 004e 873f 7ab0 19be 0f80 02bf
00000250: df65 0fbf f7b4 7c3d 69c5 ae3e eae7 c2be
00000260: 8870 cfbd c6e4 b3bc 6309 29bf ab8e 8d3c
00000270: d155 613e 35bb fbbd 9d93 9f3d e388 13bf
00000280: 2ec4 0f3f 583a 303b 3316 1fbe 8d6f 573e
00000290: 6fda d7be ae10 c7bc 4d3a 043e f0fd 07be
000002a0: b357 783e f1b8 c23e ae3c babd 67e9 d43d
000002b0: 3e36 ad3d 2ac7 c53e 9f4d 11be 189c d33d
000002c0: e956 983e f107 b53d 5d1e 14bf af1b 14bc
000002d0: ca0d ebbe 5b85 053e 14f4 d0bd c013 1b3f
000002e0: 1ac8 4c3e 04fc 6dbe 7982 9b3d c099 c73d
000002f0: 2aa2 0fbe 576f 563e 3f54 f13e 420e 4a3c
00000300: eda7 b2bd 92b6 633d e93b e9bd bf2d 0a3e
00000310: 84db ecbe be01 8b3c df36 633d 0c84 9e3e
00000320: 8817 7dbe 06b3 a8bc 7a52 f73c 19db ec3e
00000330: dadb 33be a150 423e 362c 9a3e 9c2b 00bf
00000340: 5b12 3e3e 1cda 283f a7ef ac3e 9edb 1fbf
00000350: 1722 39bd 303b 003f 4ad5 e93e f45d c63d
00000360: 641d 6ebe 857d 65bf 50e9 52be 6c9e 7d3e
00000370: dd03 2d3d fc16 2dbe 4e03 42be 2e7e 1fbe
00000380: b6a6 53be 4c41 da3e e37f 9d3e 43d9 553e
00000390: 01d4 f3be 39c3 ac3d b08f 84be 196c b5be
000003a0: ba91 67be 320b b83c 4005 19bf 0c6a 883e
000003b0: 853c 093e d014 b43e 7ef7 8b3e cee1 86be
000003c0: f689 123f 9af1 a5be fa4f a0be 69e6 163f
000003d0: 0943 313d f021 2a3e d796 b3be c17f 393f
000003e0: d0ac 973d 707b 66be f808 81bd fc3d 673d
000003f0: 923c 03bf cb25 293e 8cda f9be 1ff4 03bd
-0.17752796 0.49913216 -0.4665306 -0.055308815 -0.58778846 -0.19608912 -0.3083838 -0.3339455
-0.033582743 -0.10870788 -0.105086796 -0.50860536 0.074902415 0.035996694 -0.15608768 0.19265397
-0.065536544 -0.23537935 -0.06036098 0.27378133 0.41787037 -0.29671597 0.50141627 0.22750928
-0.10055532 -0.0081566125 0.059751105 -0.06753257 -0.33530438 -0.0038883819 -0.36247036 -0.40027192
0.07501401 -0.09775139 0.006637431 -0.17774081 0.088501245 0.12480044 0.18859619 0.070523255
-0.25895324 -0.07418706 0.2596686 0.069476746 -0.25988877 -0.14430226 -0.3250304 0.3415638
-0.06569725 -0.04433905 -0.02634469 -0.19666368 0.29473633 -0.32867143 -0.15449071 -0.19071458
-0.28634542 -0.19741032 -0.6778813 0.102558486 -0.41285342 0.0821675 0.1893097 0.47901264
-0.3379048 -0.25294855 -0.28402263 0.28893062 0.07479348 -0.30248752 0.109340824 0.24576187
-0.30125964 0.26661232 -0.14257021 0.38700068 -0.1686229 -0.14266224 -0.09828363 0.096054725
-0.13078046 -0.19597988 0.25794345 0.30494708 -0.10920899 0.12936957 -0.037028264 0.03305515
-0.4930388 -0.32502252 -0.2093303 -0.0047873287 0.4742415 -0.18575493 -0.35584298 -0.002909038
-0.03955594 -0.23299076 0.40466294 -0.37016916 0.63761103 0.37834442 0.09558192 -0.14245489
-0.1479168 -0.12053436 0.27889255 0.10320374 -0.12877867 0.6404345 0.051707156 -0.0240732
-0.6089894 0.18655914 0.37239617 -0.52770793 -0.027157694 0.5549592 -0.26134604 0.15246248
-0.10349028 0.01171436 0.27431405 -0.2740903 -0.2742874 0.15890825 0.012982819 0.18453589
0.10618086 -0.491366 -0.15037125 0.17301196 -0.41454586 -0.41647112 0.22405434 -0.350106
0.20043147 0.05947137 0.0689119 0.015507395 0.17819543 0.18750934 -0.34446055 0.2213774
0.19876319 1.0570679 -0.15008727 -0.5097665 -0.5601482 0.06169602 0.34134987 -0.3806756
-0.101288855 -0.021959674 -0.6602995 0.017279943 0.22005393 -0.12291566 0.07791827 -0.5763075
0.5615872 0.0026890244 -0.15535812 0.21038647 -0.4215884 -0.024299946 0.12912865 -0.13280463
0.24252205 0.38031724 -0.09093605 0.103960805 0.084576115 0.38628513 -0.14189766 0.10332507
0.29753807 0.08839405 -0.5785883 -0.009039803 -0.45908958 0.13039152 -0.10202804 0.6057701
0.19998208 -0.23240668 0.07593245 0.09746122 -0.14026704 0.2094091 0.47134587 0.012332501
-0.087234356 0.055594034 -0.1138838 0.13494013 -0.46261227 0.016968604 0.05547225 0.3096012
-0.24716008 -0.020593178 0.030190695 0.46260908 -0.17564335 0.1897607 0.30111855 -0.5006654
0.1856169 0.6595781 0.3377659 -0.62444484 -0.045198526 0.5009031 0.4567054 0.09685889
-0.23253399 -0.8964465 -0.20596814 0.24767464 0.042240012 -0.16903299 -0.18946573 -0.15575477
-0.20669064 0.42627943 0.30761632 0.2088366 -0.47622684 0.08435673 -0.25890875 -0.35434034
-0.22614184 0.022466276 -0.59773636 0.26643407 0.13401993 0.3517213 0.2733726 -0.2634415
0.5724176 -0.3241089 -0.31311017 0.5894533 0.04327682 0.16614509 -0.3507602 0.7246056
0.07406008 -0.22508025 -0.06300539 0.056455597 -0.512643 0.16518323 -0.4879955 -0.032215234

critic.preprocess.model.model.0.bias f4 [32]
00000000: c29a af3e 052b 843e b7cc 573d 9f42 bdbe
00000010: 0c05 f53e 8a99 673e dfc3 cf3d f22a 94bc
00000020: 3e33 2fbe fad4 b63e 67a1 b63e be08 333e
00000030: e51f 113e 7718 3e3e a6f5 bcbd b8b9 16bd
00000040: 6705 393d 68be 883e 153f 9a3e 70ba 963e
00000050: c5cf 663e 311f 9b3e 0bd6 64bc ffaf 4b3e
00000060: a7c8 47bc b6bd 7c3e 2590 cd3c 7195 113d
00000070: 525c b53e 8909 80bd 0665 8abe 0f73 1a3e
0.34297758 0.2581407 0.052685466 -0.3696489 0.47855413 0.22617164 0.10144781 -0.018086884
-0.17109391 0.35709363 0.35670015 0.17483804 0.14172323 0.1856402 -0.09226541 -0.03679821
0.045171168 0.26707768 0.30126253 0.29439116 0.22540195 0.30297235 -0.013967047 0.19891356
-0.012193835 0.24681744 0.025093148 0.03554291 0.35421997 -0.06251819 -0.270302 0.15082954

critic.preprocess.model.model.2.weight f4 [32, 32]
00000000: 9ecd 2d3d 87af 873e 182c 91be 2607 1e3f
00000010: 40a8 25be ad09 24be 62f1 343e 4921 cfbd
00000020: 44b9 ec3d 615d 8dbd b23a c4bd 7a08 afbe
00000030: 2662 b4bd 513a 4d3a e1ab 66bd eb17 03bc
00000040: c75b 6d3d 7148 62be 276c 6abd 8127 b43d
00000050: 7e32 513e 622e 4cbe 68b9 a03e 3ea6 9abd
00000060: b329 053f 58c8 97be fe37 a03e 9e96 23be
00000070: eb92 c93e 5dab 2fbd 1942 083e b25b 3ebd
00000080: f009 ffbd 1ee4 703e a9cf 51bd 1ae0 7e3e
00000090: 58c3 783d 6168 863d 4b9f 293e c86a 9e3e
000000a0: 5931 403e 6e6d 5dbe d968 18be a09b 99bd
000000b0: cb2c 0abc ec8f f6bb 83b2 2abd 6d82 143e
000000c0: 4c91 603e 0096 53be 5119 2a3e 6631 60bc
000000d0: 1c40 aebd 7575 083e 4fa4 7e3d f1fe b8be
000000e0: 2635 ac3d fe19 a4bd 130a 633e 353a e33d
000000f0: 781d b23d 09c7 ba3e 6fe5 06be 7e92 64be
00000100: f290 903e e16e 5b3e 7cb6 4fbe 61fc 4d3e
00000110: 556c 51be be68 ab3c 517a 84be 24fe b2bd
00000120: de75 00bc 8d73 18bd f1d5 883d b99a 58be
00000130: db87 413e 8b5c 69bd 3a18 053e d814 a23c
00000140: 4682 8d3e 6e86 fd3d cc6f 3d3e 1416 61be
00000150: d852 e33c 982f e2bd c449 ab3d 2737 62be
00000160: 49a7 823d 1dbc 603d 3e30 7e3e 6e32 ebbd
00000170: fab2 ad3e 3f18 a63d 347b 7a3d a0a7 043d
00000180: 9a06 9abe 5eaa 663e a941 d4bd 51a9 e03e
00000190: 7d84 3bbd 4553 2b3d 7e28 8bba 3b8f 2cbe
000001a0: dd16 503e 50cb 8c3b 6027 41be a025 a0be
000001b0: acb6 693e 71b0 29be 21f2 2bbd 9255 3b3d
000001c0: 0185 90bc 18f5 a03d 3a81 4c3c 2b34 39be
000001d0: 448a 073e adf7 64bd 7455 d33d 7005 73be
000001e0: 18d9 7a3e 0751 a2be 180e 8c3e 4908 fc3d
000001f0: 8544 39be e4e0 e23d a372 4d3d a1da 993c
00000200: c68b b7bd 5617 73bd 8a88 22be 263b adbc
00000210: c414 d83b 8035 463d 55dd fbbd e2e4 c1bc
00000220: fc28 15be f1e0 15be c0e0 953c 9961 3cbe
00000230: 54ce 403d 3453 2dbe 75ea fbbd 403e 16bd
00000240: 4ebe 2cbe 5f0e 0c3e bbf7 113e 711a bdbd
00000250: 04ae 173d fc3c a93d ec85 4d3d d57a e9bc
00000260: 355f 3abe 279c f83d 7fc5 1ebe 5419 06bd
00000270: d124 9a3b 783b 84bd 6fc7 87bd 489a 23be
00000280: b67b a93e 6a98 b73e cb7d afbd c2d8 d53e
00000290: db15 853e 6c0e ca3d 7cf1 453d 3a5b 553d
000002a0: 166f dd3d d45f b43d bc51 dabc e1e4 1a3d
000002b0: 99ff ae3e 6cee a03d 794e 97bb 960c d33d
000002c0: b80d 6d3c 62ed de3d 2415 1d3d b608 123d
000002d0: ef8a d93c 32d5 483e 043d 083e 1380 a23d
000002e0: 4c7c 0fbe 3cb4 893e 35e7 713e dab3 8bbe
000002f0: 79ef f73e 65c4 e23e 3400 933d 1d65 78bd
00000300: 5bca 3b3e 687e 453e 6837 97be c347 923e
00000310: 140a 44bd 9d21 a43d 2f54 d0bd 523c 273e
00000320: 8fe9 463e efa2 0bbe 60f2 45bd 85ea 80bb
00000330: f4c9 d53d a319 9cbd f14f cf3d a097 a4bd
00000340: 3470 9ebd a562 f2bd 1f8a a53d cf99 95be
00000350: 38bf 8f3d 67f6 5dbe 514f f83d c449 9dbd
00000360: c501 64bd e356 033e 13e9 193d ff22 c0bd
00000370: 28bc 213e 8132 073e 9cdf 153c 4afa 2b3e
00000380: dd23 e5bd 5e79 9a3d 1694 cd3d 4ad2 b33d
00000390: 0000 88b8 b8b2 4e3d 0003 0ebe 530e 0ebe
000003a0: 5006 34bc 7080 b5bc 5969 063e 6771 033e
000003b0: be7a f53d 5dd3 a5bd 5c1b 0ebe c2cb 29be
000003c0: 9406 833d 021d 23be 3fb4 34be 98f7 b6bd
000003d0: d8d5 18be ceac 8ebd 91eb e3bd 08bd b9bd
000003e0: 7919 2c3e 3473 08bd 9b29 163e 0086 803b
000003f0: 3839 babc 38ff 53bd c565 01be 8a70 11be
0.04243242 0.26501104 -0.28353953 0.6172966 -0.16177464 -0.16019316 0.17670205 -0.101137705
0.11558774 -0.06902576 -0.09581508 -0.34186155 -0.08807783 0.0007828819 -0.05631626 -0.008001308
0.057948854 -0.22097947 -0.05723205 0.08796597 0.20429417 -0.19939569 0.31391454 -0.075512394
0.5201675 -0.29645038 0.3129272 -0.15975425 0.39369902 -0.042888034 0.13306464 -0.046474166
-0.12453067 0.2352452 -0.05122343 0.24890175 0.06073317 0.065628774 0.16564672 0.30940843
0.18768825 -0.21623775 -0.14883746 -0.07500386 -0.008433531 -0.007524481 -0.04167415 0.14502878
0.21930426 -0.20662689 0.1661122 -0.0136836525 -0.08508322 0.13326056 0.062168416 -0.36132005
0.08408575 -0.0801277 0.22171812 0.110950865 0.08697027 0.36479977 -0.1317346 -0.22321507
0.28235584 0.21429016 -0.20284456 0.20115806 -0.20451482 0.020923968 -0.2587457 -0.0873988
-0.007840602 -0.037219573 0.06681431 -0.21152772 0.18899481 -0.05697302 0.12997523 0.01978533
0.27638453 0.12379156 0.18499678 -0.21981078 0.027749464 -0.11044234 0.08363679 -0.22091351
0.06379563 0.0548669 0.2482309 -0.11484228 0.3392561 0.08110093 0.061152652 0.032386422
-0.30083162 0.22525927 -0.10364086 0.43879178 -0.045780648 0.04182746 -0.0010616926 -0.16851513
0.20321222 0.0042966977 -0.18862677 -0.31278706 0.2282359 -0.16571213 -0.04197896 0.045735903
-0.017641546 0.07859248 0.012481982 -0.18086307 0.13236338 -0.055900265 0.10319033 -0.23732543
0.24496877 -0.31702444 0.27354503 0.12306268 -0.18092544 0.11078051 0.050158154 0.018781008
-0.089622065 -0.059348427 -0.15872398 -0.021146368 0.0065942723 0.048390865 -0.12298075 -0.02366871
-0.14566416 -0.1463659 0.018295646 -0.18396606 0.04707177 -0.1692627 -0.123005785 -0.03668046
-0.1686947 0.13677357 0.14254658 -0.09233559 0.03703119 0.08263585 0.050176546 -0.028500954
-0.18200381 0.12139159 -0.15505026 -0.032739 0.004704096 -0.06456655 -0.06629836 -0.15976822
0.33102196 0.3585847 -0.08568915 0.41766936 0.25993237 0.09866032 0.048326 0.052088954
0.108122036 0.0880734 -0.026650302 0.037815932 0.3417938 0.07857975 -0.004617509 0.10305135
0.014468603 0.10885121 0.03835024 0.03565284 0.026555507 0.19612578 0.13304526 0.079345845
-0.14012259 0.2689532 0.23623355 -0.27285653 0.4842489 0.44290462 0.07177773 -0.060643304
0.18338911 0.19286501 -0.2953446 0.28570375 -0.047861174 0.08014224 -0.10172307 0.16331604
0.19425033 -0.13636373 -0.04832685 -0.003934207 0.1043891 -0.07622077 0.101226695 -0.08036733
-0.07736245 -0.11835221 0.08082985 -0.2921891 0.07018894 -0.21676026 0.121245034 -0.07680085
-0.05566575 0.12826113 0.037575793 -0.09381675 0.15794432 0.1320286 0.009147551 0.16794696
-0.11188481 0.0754268 0.10038011 0.08780344 -6.484985e-05 0.05046341 -0.13868332 -0.13872652
-0.010987833 -0.02215597 0.13126124 0.12836228 0.11986302 -0.08096955 -0.13877624 -0.16581634
0.06397739 -0.15929034 -0.17646883 -0.089339435 -0.14925325 -0.06966554 -0.11128915 -0.09069258
0.16806592 -0.03331299 0.14664309 0.003922224 -0.022732362 -0.051757067 -0.12636478 -0.14203086

critic.preprocess.model.model.2.bias f4 [32]
00000000: 3038 213d 836c ffbd a0db 92bd a57c 91bc
00000010: 89f6 4bbd 1f76 e93d 6a63 1fbe 58e1 1abe
00000020: e06f 803d ff5a 9c3d d937 f23d ce2e 2d3e
00000030: 7c41 cf3d 2b09 81be 34ad 293e 3a6b 593d
00000040: b79d 843d 79fe 533d 96a1 eebd b478 73bc
00000050: ddc4 893c c30d b03d 080b d2bc 9705 e43d
00000060: af78 503e 384e b0bc fd2e e9bd af51 75bd
00000070: 0dd2 643c ffba ac3c 6d23 bb3d 29cb 3b3c
0.039360225 -0.12471869 -0.071707964 -0.01775963 -0.04979566 0.11399483 -0.15565267 -0.15125024
0.062713385 0.07634544 0.11827058 0.16912386 0.10119912 -0.25202307 0.16569978 0.053080775
0.06475394 0.051756356 -0.11651914 -0.014860321 0.016817505 0.08596375 -0.025640026 0.11133879
0.20358537 -0.021521673 -0.113859154 -0.059892353 0.013966096 0.02108526 0.09137616 0.011462011

critic.last.model.0.weight f4 [1, 32]
00000000: 6514 35be a0c1 2bbe c0a6 f5bd 9d13 f93c
00000010: f422 a93d a3c5 8d3d 8d35 19be b9a2 1cbe
00000020: c546 2f3d 7600 8dbf 9447 08c0 4a55 98bf
00000030: 0e5a d43e 7585 9abd 7855 0dc0 4d71 3cbf
00000040: 7f41 853e ca6c 8e3e 8524 933e 3d62 ca3e
00000050: b56d 1f3d 3f9e c03d 4009 2cbe 55ec 03be
00000060: f3e8 023e 7195 45be 393e d3be 4fbc 283e
00000070: 0bf7 1ebf 7149 a6bf 4bdd 26be 8bf0 bdbe
-0.17683561 -0.16773081 -0.11994696 0.03040486 0.0825862 0.06922462 -0.14961834 -0.15296449
0.0427921 -1.1015766 -2.1293688 -1.1901028 0.41474956 -0.07544986 -2.2083416 -0.73610383
0.26026532 0.27817374 0.287388 0.39528075 0.038922984 0.09405183 -0.16800404 -0.12883122
0.12784176 -0.19295289 -0.4125841 0.16478084 -0.6209571 -1.2991163 -0.16295354 -0.37097582

_actor_critic.actor.sigma_param f4 [9, 1]
00000000: 653c 61c0 2e77 60c0 5b98 5bc0 3bb8 67c0
00000010: f988 67c0 2d45 63c0 e75d 62c0 d9a8 6ac0
00000020: aefe 61c0
-3.5193112 -3.5072742 -3.431174 -3.6206195 -3.6177351 -3.5510972 -3.5369813 -3.6665556
-3.5311694

_actor_critic.actor.preprocess.model.laplacian f4 [9, 9]
00000000: abaa 2a3f 0000 0000 0000 0000 abaa aabe
00000010: 0000 0080 0000 0080 abaa aabe 0000 0080
00000020: 0000 0080 0000 0000 abaa 2a3f 0000 0000
00000030: 0000 0080 abaa aabe 0000 0080 0000 0080
00000040: abaa aabe 0000 0080 0000 0000 0000 0000
00000050: abaa 2a3f 0000 0080 0000 0080 abaa aabe
00000060: 0000 0080 0000 0080 abaa aabe abaa aabe
00000070: 0000 0080 0000 0080 abaa 2a3f 0000 0000
00000080: 0000 0000 abaa aabe 0000 0080 0000 0080
00000090: 0000 0080 abaa aabe 0000 0080 0000 0000
000000a0: abaa 2a3f 0000 0000 0000 0080 abaa aabe
000000b0: 0000 0080 0000 0080 0000 0080 abaa aabe
000000c0: 0000 0000 0000 0000 abaa 2a3f 0000 0080
000000d0: 0000 0080 abaa aabe abaa aabe 0000 0080
000000e0: 0000 0080 abaa aabe 0000 0080 0000 0080
000000f0: abaa 2a3f 0000 0000 0000 0000 0000 0080
00000100: abaa aabe 0000 0080 0000 0080 abaa aabe
00000110: 0000 0080 0000 0000 abaa 2a3f 0000 0000
00000120: 0000 0080 0000 0080 abaa aabe 0000 0080
00000130: 0000 0080 abaa aabe 0000 0000 0000 0000
00000140: abaa 2a3f
0.6666667 0.0 0.0 -0.33333334 -0.0 -0.0 -0.33333334 -0.0
-0.0 0.0 0.6666667 0.0 -0.0 -0.33333334 -0.0 -0.0
-0.33333334 -0.0 0.0 0.0 0.6666667 -0.0 -0.0 -0.33333334
-0.0 -0.0 -0.33333334 -0.33333334 -0.0 -0.0 0.6666667 0.0
0.0 -0.33333334 -0.0 -0.0 -0.0 -0.33333334 -0.0 0.0
0.6666667 0.0 -0.0 -0.33333334 -0.0 -0.0 -0.0 -0.33333334
0.0 0.0 0.6666667 -0.0 -0.0 -0.33333334 -0.33333334 -0.0
-0.0 -0.33333334 -0.0 -0.0 0.6666667 0.0 0.0 -0.0
-0.33333334 -0.0 -0.0 -0.33333334 -0.0 0.0 0.6666667 0.0
-0.0 -0.0 -0.33333334 -0.0 -0.0 -0.33333334 0.0 0.0
0.6666667

_actor_critic.actor.preprocess.model.D f4 [3, 3, 3]
00000000: cdcc 4c3d 0000 0000 0000 0000 0000 0000
00000010: cdcc 4c3d 0000 0000 0000 0000 0000 0000
00000020: cdcc 4c3d cdcc 4c3d 0000 0000 0000 0000
00000030: 0000 0000 cdcc 4c3d 0000 0000 0000 0000
00000040: 0000 0000 cdcc 4c3d cdcc 4c3d 0000 0000
00000050: 0000 0000 0000 0000 cdcc 4c3d 0000 0000
00000060: 0000 0000 0000 0000 cdcc 4c3d
0.05 0.0 0.0 0.0 0.05 0.0 0.0 0.0
0.05 0.05 0.0 0.0 0.0 0.05 0.0 0.0
0.0 0.05 0.05 0.0 0.0 0.0 0.05 0.0
0.0 0.0 0.05

_actor_critic.actor.preprocess.model.phi.cvx_field._quad_param f4 [3]
00000000: ae94 8239 0cdb c33f 745d 8937
0.00024906307 1.5301223 1.637519e-05

_actor_critic.actor.preprocess.model.phi.cvx_field._y_layers.0.weight f4 [32, 3]
00000000: 5a61 2a3c 7699 99bc 6974 c73c 87f7 4f3c
00000010: 3854 803c 9bb8 0e3c 0806 9d3c 5e53 84bc
00000020: d653 333d cfd8 543c 7ef2 803c 0319 2b3c
00000030: 2edd 7f3c a9ba 58bd 31bd c9bd 73c1 543b
00000040: 6620 32bd 143a 143d 6ec0 b5bd 28df 853c
00000050: 94ca c73d a825 05bd 4c67 7cbd 16fc 4f3d
00000060: 5f0f 2c3c b0ca 023d 2020 cf3b 98f2 1d3c
00000070: 890f 113d 62fb ec3b 0588 263c 36af d03c
00000080: 2054 2c3b e8c8 503c 7364 813c 9421 0c3c
00000090: 8332 9c3c b032 84bc 631f 313d 75f0 973c
000000a0: cb0a 7c3c 1205 0e3d 30d8 b83c 7385 803c
000000b0: 782f 5d3d d222 913c 396b 75bc 30f3 1b3d
000000c0: f36e 323c 495f ba3c b838 14bd 9170 953b
000000d0: 3a60 f43c df4e ddbb 2cdb 91b9 ce94 59bd
000000e0: f538 233d f6e2 863c d86a 783c 1cf3 c23c
000000f0: a13c 9e3c c1ee 84bc 78fe 383d b4a5 0dbd
00000100: 6ca0 7bbd f8a8 4f3d 747c 8b3c 061f 9fbc
00000110: d3fe 9abd 57d6 333c 99b3 323d feff 1f3c
00000120: 9758 923c cd37 7ebc ad49 1e3d a0cc 05bd
00000130: 05a3 e13a 02ba 0e3d b701 3f3c 4ced 343d
00000140: 0400 2e3c 2eae 88b8 f142 57bd fc3a 233d
00000150: d7a4 8e3c b913 7ebc 20ba 193d 1eb2 993b
00000160: 26ed f33c af29 d8bb 3d72 873c 70dd 773c
00000170: 8936 ce3c 95da 7d3c 59d5 763c 12f5 a73c
0.010399187 -0.018749934 0.0243475 0.012693292 0.015665159 0.008711006 0.019167915 -0.016153034
0.043781124 0.012991144 0.01574063 0.010442975 0.015616698 -0.052912388 -0.098505385 0.0032463938
-0.04348793 0.0361882 -0.08874594 0.01634176 0.097554356 -0.032506615 -0.06162195 0.050777517
0.010501712 0.03193158 0.0063209683 0.009640358 0.035415206 0.0072321156 0.0101642655 0.025474172
0.002629526 0.012743212 0.015794968 0.0085529275 0.019067055 -0.016137451 0.043242823 0.018547276
0.015383433 0.034672804 0.022564024 0.015688634 0.054000348 0.017716799 -0.014979177 0.03807372
0.01089071 0.022750514 -0.036186904 0.004560538 0.02983104 -0.006753787 -0.0002781985 -0.053120427
0.03984924 0.016465645 0.015162192 0.023797564 0.01931602 -0.016227128 0.045164555 -0.034581855
-0.061432287 0.05069825 0.017027117 -0.019423973 -0.07568135 0.010976396 0.04362831 0.009765623
0.017864509 -0.015516234 0.03864448 -0.03266585 0.0017214721 0.03484536 0.011658124 0.044171616
0.010620121 -6.517429e-05 -0.052554075 0.039851174 0.017412586 -0.015507632 0.03753102 0.0046904227
0.029776167 -0.006596766 0.016533965 0.015128478 0.025172489 0.015494009 0.0150655145 0.0205026

_actor_critic.actor.preprocess.model.phi.cvx_field._y_layers.1.weight f4 [32, 3]
00000000: dbb7 a8bd d545 3f3b f5ed 21bd e5b6 7dbd
00000010: 1304 6f3d 2e8e 99bd dc25 a9bd fda5 c2bd
00000020: fff9 5cbd 87e9 bbbd dea4 2f3d 11b8 1abc
00000030: de1e 81bd 781b 353d 1c8d b3bd 2631 91bd
00000040: a57f 37bc 2e32 97bd 402d a8bd 2871 e3bc
00000050: fa61 2bbd 0b9f 62bd 8c0d ad3d 39e6 a3bd
00000060: 3072 63bd 47fd a43d cec8 c0bd ab5e 78bd
00000070: c607 8c3d c3a0 c7bd 5836 92bd d089 36bc
00000080: 7b02 99bd 96f5 91bd 0fd5 84bb 46a8 9bbd
00000090: d0b6 babd 4947 283d 5968 2bbc ec1e 74bd
000000a0: 5019 813d ef18 c1bd fdf7 76bd a32c 8b3d
000000b0: 247f c7bd eed3 70bd d2cd 883d 4c8f bebd
000000c0: de31 153e 41f1 22be 1545 85be fab1 8ebd
000000d0: 771a 08bc f3f8 7cbd df06 8cbd dfd8 b33b
000000e0: e154 73bd 9af5 98bd 3766 d8bb 8b23 a4bd
000000f0: 8246 81bd 2463 333d fd77 b2bd 0c73 b5bd
00000100: c951 2c3d 8d38 92bc 4d9a 76bd 2d8e 653d
00000110: 6455 9bbd 1647 8fbd 4756 943a 2bfa 9bbd
00000120: 2aa0 96bd 2001 06bd 10d7 66bd 58a8 6bbd
00000130: 19db b53d 7822 9ebd 9794 99bd 35cd c8bb
00000140: f78c a5bd 3e00 6fbd f561 8b3d 8b35 c2bd
00000150: 5961 6bbd c2df a93d 3d55 b3bd fa7b 9fbd
00000160: a537 a5bc 4794 a5bd 61c7 73bd bd55 783d
00000170: cc30 bbbd 0aca c1bd 36de 1d3d 6bb1 abbb
-0.08238193 0.002918591 -0.039533574 -0.061942 0.058353495 -0.07497822 -0.08259174 -0.09504316
-0.053949352 -0.09175401 0.04288184 -0.009443299 -0.063047156 0.04421565 -0.08767149 -0.070894524
-0.011199866 -0.07382618 -0.08211756 -0.027763918 -0.041841485 -0.055327456 0.084498495 -0.08002896
-0.05552882 0.08056121 -0.094133005 -0.060637157 0.0683742 -0.0974746 -0.071392715 -0.0111412555
-0.07471176 -0.0712692 -0.004053719 -0.07600455 -0.091169 0.041083608 -0.01046189 -0.059599802
0.06303656 -0.09428584 -0.060295094 0.06795623 -0.09741047 -0.058795862 0.06679882 -0.093046755
0.14569804 -0.15912344 -0.26029268 -0.0696754 -0.008307091 -0.061760854 -0.06837248 0.0054884995
-0.05940712 -0.0746872 -0.006603982 -0.08014592 -0.063122764 0.04379572 -0.08714292 -0.08859834
0.042070184 -0.017849231 -0.060205746 0.056043793 -0.07584646 -0.069959804 0.0011317217 -0.07616075
-0.073547676 -0.032715917 -0.056357443 -0.057533592 0.0887968 -0.07721418 -0.074990444 -0.006127978
-0.080835275 -0.05834984 0.06805793 -0.09482869 -0.057465885 0.082946315 -0.08756492 -0.077873185
-0.020168135 -0.08084922 -0.059516314 0.06062864 -0.09140167 -0.09462364 0.038541995 -0.0052396557

_actor_critic.actor.preprocess.model.phi.cvx_field._y_layers.2.weight f4 [1, 3]
00000000: ffb4 133f c8c8 063e c5fb dd3e
0.57698053 0.1316253 0.43356147

_actor_critic.actor.preprocess.model.phi.cvx_field._z_layers.0.weight f4 [32, 32]
00000000: 59e0 303e 6f33 933e 5e0c 373e 12a2 aa3e
00000010: 2a72 2f3e 4e57 2e3c 7b84 c43d fc6b b53d
00000020: a2a9 783e 89c4 ea3d 0f2b 803e 4e12 ae3d
00000030: a345 793e b1a1 363e 29f3 783e 8cb4 8a3e
00000040: 88cb d13d 2abd 503e e83e 183e 6937 883e
00000050: 0c2e 6f3e 23d4 023d b363 b43e 2917 f83d
00000060: c6de 8c3e f2b0 0e3c e713 1c3e efcc 073e
00000070: d777 933e 87c2 693e adcd 8a3e 9121 883e
00000080: fd95 383e e12e 723e 06d0 1f3e 4d84 8f3e
00000090: 820f 843e 66b4 8d3d 9d05 b43d dbec 263d
000000a0: 2a28 883e 2d94 0a3e 97b7 503e 8b2e bb3c
000000b0: 9830 583e dd6a 513e 7215 a33e e9a9 893e
000000c0: 7003 283e b298 5b3e 09b7 3c3e 97e8 853e
000000d0: efb6 5e3e 8283 583d 1a01 973e 1bfe eb3d
000000e0: b435 853e a32c 073d a407 d13d 6219 1b3e
000000f0: 7019 773e b816 683e 9f0f 8a3e 5027 863e
00000100: 44c1 303e 7640 7f3e 23b2 2b3e b942 a43e
00000110: 4b6b 7f3e 6b7e 9f3d 5fa4 f63d 88ea a33d
00000120: 0421 673e 9cc8 063e b118 893e 0f5e ff3d
00000130: 5899 613e f3e6 443e 37e3 b93e 9e96 8e3e
00000140: ec39 3f3e 3f1b 4f3e 6576 2a3e 045a 8c3e
00000150: 06c6 603e 9728 b63d c673 c13e f879 253d
00000160: ee38 8d3e 3c3d ad3d 10b5 1f3d 2f8e 213e
00000170: 12ec 813e ef45 2a3e f033 903e 1ebf 8a3e
00000180: 995e 283e ac57 923e 7734 563e 15cc b63e
00000190: 982c 513e 9d6c 363d f64f 233e 2109 8c3d
000001a0: aeb1 9a3e ebb3 d83d a26c 333e a25e c23d
000001b0: 8833 863e aedb 5c3e 918d aa3e f9cd 9d3e
000001c0: 3bdd 0c3e 8541 6d3e c4a5 283e 8797 973e
000001d0: 1ee9 833e d4c7 473d 1151 a63e ec3a 173e
000001e0: 5e50 a13e f046 6d3d 0832 473e 7600 0a3e
000001f0: e301 9b3e 2262 8e3e 93c1 9f3e 0a40 993e
00000200: f5f3 723e 4b84 293e 1a01 723e d22a 563e
00000210: 4a67 983e 83f9 0f3e b1e5 6c3c 9eb9 ff3d
00000220: 8031 2d3e c60e 463e 9d67 893e 01aa 05bb
00000230: f150 923e 789e 0d3e 395e bf3e 02f6 ab3e
00000240: 5348 8a3e 333b 323e 6c13 7a3e bfb8 383e
00000250: 1b20 913e 3bc9 0c3e 3bbf a53e d856 263d
00000260: 2a67 a93e 9c34 733c 8fee ad3d 902a 673e
00000270: 2f15 a13e 5f86 143e bed7 4d3e 895f 3f3e
00000280: 81f2 703e ca78 453e cde7 363e 1ea6 823e
00000290: 736a bf3e 131c 083e 1f4b 733d d100 0b3e
000002a0: 2893 493e e42d 443e 7fa9 a13e 0753 043d
000002b0: bbac 733e 7f95 1c3e cc05 b43e cb06 9a3e
000002c0: d7eb 853e b05c 203e 8c9d 6c3e 1c0b 5e3e
000002d0: 305f 743e 23b2 293e cd78 af3e 3d93 8a3d
000002e0: 0cb6 9b3e 7e11 f03c 3e74 b13d d7da 543e
000002f0: f1ef 8c3e 7c86 283e 600d 623e f58b 683e
00000300: a87b 413e eede 813e 8c79 1f3e 98c1 9f3e
00000310: 6fe1 0f3e 6041 4d3d 59a3 3a3e 2c5a 133d
00000320: 1945 483e 67f4 de3d 5340 773e 33f8 123e
00000330: db32 663e d05d 183e da89 683e 089a 903e
00000340: 154a 593d fc16 6a3e d68c 183e 1451 703e
00000350: 2fca 543e 47a1 483d c877 b53e e7a9 7c3d
00000360: 818f 8b3e b534 0b3e d1f2 763d 734c fe3d
00000370: 06c1 873e 63fe 373e 8af4 743e b0d1 733e
00000380: 69db 3e3e 4026 c63d 2e0e 2e3e 7a4f 1e3e
00000390: fdd3 853e 27eb 8b3d d052 a9bd be6f c83c
000003a0: 1447 2d3e 5bc9 393e c200 033e ff08 25be
000003b0: 56de 703e 54df e03d c6b3 7d3e 85a9 893e
000003c0: fb38 003e 70b9 d43d 370a 723e 2f03 4c3e
000003d0: 5725 653e aae3 efbd 59cc b83e 66db c53d
000003e0: 179f 703e 7258 03be c75e 0b3e 6598 443e
000003f0: 6171 8e3e c8f0 673e 123b 543e 5707 4a3e
0.17273082 0.28750178 0.17875811 0.33326775 0.17133394 0.010640932 0.09595581 0.08858487
0.2428346 0.11463267 0.2503285 0.08499585 0.2434297 0.17835118 0.24311508 0.2709087
0.10243899 0.2038466 0.14867747 0.26604775 0.23357409 0.03194059 0.35232314 0.121137924
0.27513713 0.008709179 0.15241967 0.1326177 0.28802368 0.22828113 0.27110043 0.2658811
0.18025966 0.23650695 0.15606698 0.28030625 0.25793082 0.06919174 0.08790133 0.040753227
0.26593143 0.13533087 0.20382534 0.022849342 0.21112287 0.20450921 0.318523 0.26887444
0.16407561 0.21444967 0.18429197 0.26154014 0.21749471 0.05285979 0.29493028 0.11523076
0.26017535 0.033001553 0.102065355 0.15146402 0.24130797 0.22664917 0.26965043 0.26201868
0.17261225 0.24926934 0.16767173 0.32082155 0.24943273 0.07787784 0.1204307 0.08003718
0.22571188 0.13162464 0.2677665 0.12469112 0.22031152 0.19228725 0.36306164 0.27849287
0.18674439 0.20225237 0.16646726 0.27412426 0.2195054 0.08894461 0.3778364 0.04039952
0.27582496 0.08458945 0.038991034 0.15776895 0.2537542 0.1662824 0.28164625 0.27098936
0.16442336 0.28582513 0.20918451 0.35702577 0.20427167 0.044537175 0.15948471 0.06837679
0.30213684 0.10581192 0.17521909 0.09490706 0.2621119 0.21568176 0.33311132 0.30821207
0.13756268 0.23169525 0.16469485 0.29607794 0.25763792 0.048774555 0.32483724 0.1476857
0.31506628 0.05792898 0.19452679 0.13476738 0.30274877 0.27809244 0.31202373 0.2993167
0.23725875 0.16554372 0.23633233 0.20914772 0.29766303 0.14060025 0.01445906 0.124865755
0.16913414 0.19341573 0.26836863 -0.002039552 0.28577378 0.13829982 0.37376574 0.33586127
0.27008304 0.17405395 0.24421471 0.18039225 0.28344807 0.13748638 0.3237246 0.040610164
0.3308652 0.014844086 0.08492767 0.2257483 0.31461474 0.14504384 0.2010183 0.18688788
0.23530008 0.19284359 0.17861862 0.25517362 0.37385902 0.1329196 0.059397813 0.1357453
0.19685042 0.19158131 0.31574628 0.032305744 0.2379636 0.15291403 0.35160673 0.30083308
0.26156494 0.15660357 0.23106974 0.21683925 0.23864436 0.1657186 0.3427185 0.06766365
0.30412328 0.029305216 0.086647496 0.20786606 0.2752681 0.16457552 0.22075415 0.2270964
0.18894827 0.25365394 0.1557371 0.31202388 0.1405084 0.050111175 0.18226375 0.035974666
0.19557609 0.1088646 0.24145631 0.14352493 0.22480337 0.14879537 0.22708836 0.28242517
0.053049166 0.2286033 0.14897475 0.23468429 0.20780252 0.04898193 0.35442948 0.06168547
0.27257922 0.13594325 0.06029016 0.12416925 0.26514453 0.17968135 0.23921409 0.23810458
0.18638386 0.09675264 0.16997597 0.15460005 0.26138297 0.06831961 -0.08267748 0.024467345
0.16921645 0.18143217 0.12793258 -0.16116713 0.23522314 0.109800965 0.2477561 0.26887146
0.12521736 0.10386932 0.23636709 0.1992309 0.22377525 -0.11713345 0.36093405 0.096609876
0.23498188 -0.12826708 0.13610373 0.19198759 0.27820876 0.22650445 0.20725659 0.19729362

_actor_critic.actor.preprocess.model.phi.cvx_field._z_layers.1.weight f4 [1, 32]
00000000: 7ec2 bb3e 76ac ce3e 5dc1 0e3f 8162 a53e
00000010: 50b0 2a3f afda 213f 4699 d23e 272f e53e
00000020: bd77 f83e b434 2a3f bc68 233f be14 233f
00000030: 7f0a a53e 8715 283f 0f08 2a3f 43a0 063f
00000040: db4d 9e3e 1416 fc3e a65c f23e e3e1 363f
00000050: 7f1f 2b3f 5eaa a83e fb50 073f 9460 233f
00000060: 16b3 da3e eb12 e03e e882 353f 692c dc3e
00000070: d60f e53e 65ef 333f fc93 043f 5682 a33e
0.36671823 0.40365952 0.557638 0.32301715 0.6667528 0.6322431 0.41132563 0.44762537
0.48528853 0.6648667 0.63831687 0.63703525 0.3223457 0.6565785 0.66418546 0.5258829
0.30918774 0.49235594 0.4733631 0.71438426 0.66844934 0.3294248 0.5285794 0.6381924
0.42714757 0.43764433 0.7090287 0.43002632 0.44738644 0.7028716 0.51788306 0.31935376

_actor_critic.critic.preprocess.model.model.0.weight f4 [32, 9]
00000000: e4c9 35be 408e ff3e 19dd eebe 7f8b 62bd
00000010: 4e79 16bf 96cb 48be 7be4 9dbe e8fa aabe
00000020: 0f8e 09bd 3da2 debd bf37 d7bd f633 02bf
00000030: 7066 993d 4571 133d 73d5 1fbe 1547 453e
00000040: 0638 86bd 4907 71be 133d 77bd 112d 8c3e
00000050: 1bf3 d53e 28eb 97be d15c 003f 31f8 683e
00000060: f3ef cdbd 50a3 05bc 93bd 743d 844e 8abd
00000070: 04ad abbe 39d4 7ebb b795 b9be 71f0 ccbe
00000080: f2a0 993d e131 c8bd cf7e d93b b001 36be
00000090: 2440 b53d 6097 ff3d 5c1f 413e 7f6e 903d
000000a0: 8595 84be 63ef 97bd 48f3 843e d349 8e3d
000000b0: 2410 85be f9c3 13be 626a a6be 73e1 ae3e
000000c0: 488c 86bd dd9c 35bd d2d0 d7bc 3462 49be
000000d0: aee7 963e 9f47 a8be d032 1ebe af4a 43be
000000e0: de9b 92be ee25 4abe a189 2dbf 2f0a d23d
000000f0: 8661 d3be 6f47 a83d 67da 413e 2541 f53e
00000100: dc01 adbe 7982 81be 6a6b 91be b7ee 933e
00000110: 532d 993d a5df 9abe 15ee df3d 00a9 7b3e
00000120: b43e 9abe 6981 883e edfd 11be f424 c63e
00000130: 7bab 2cbe 0d16 12be ee48 c9bd 57b8 c43d
00000140: 50eb 05be f3ae 48be 2a11 843e 0622 9c3e
00000150: f7a8 dfbd 7579 043e f3aa 17bd d664 073d
00000160: 956f fcbe 5a69 a6be af5a 56be 06df 9cbb
00000170: c8cf f23e 8a36 3ebe 0d31 b6be 8fa5 3ebb
00000180: 6905 22bd 2195 6ebe fb2f cf3e d086 bdbe
00000190: 7a3a 233f 5cb6 c13e 74c0 c33d b2df 11be
000001a0: 8077 17be b8da f6bd 01cb 8e3e 7c5c d33d
000001b0: 8ede 03be 84f3 233f e2ca 533d 2935 c5bc
000001c0: bbe6 1bbf 5c09 3f3e b6aa be3e de17 07bf
000001d0: d079 debc ce11 0e3f 26cf 85be 201f 1c3e
000001e0: b6f2 d3bd 96ed 3f3c e472 8c3e 9055 8cbe
000001f0: 666f 8cbe d8b8 223e e4b5 543c faf6 3c3e
00000200: 5a75 d93d 5394 fbbe ecfa 19be 0c2a 313e
00000210: 5b3f d4be b43b d5be 806e 653e 1841 b3be
00000220: e83d 4d3e 4098 733d af21 8d3d bb12 7e3c
00000230: dd78 363e 7302 403e 225d b0be c2b0 623e
00000240: 9488 4b3e 004e 873f 7ab0 19be 0f80 02bf
00000250: df65 0fbf f7b4 7c3d 69c5 ae3e eae7 c2be
00000260: 8870 cfbd c6e4 b3bc 6309 29bf ab8e 8d3c
00000270: d155 613e 35bb fbbd 9d93 9f3d e388 13bf
00000280: 2ec4 0f3f 583a 303b 3316 1fbe 8d6f 573e
00000290: 6fda d7be ae10 c7bc 4d3a 043e f0fd 07be
000002a0: b357 783e f1b8 c23e ae3c babd 67e9 d43d
000002b0: 3e36 ad3d 2ac7 c53e 9f4d 11be 189c d33d
000002c0: e956 983e f107 b53d 5d1e 14bf af1b 14bc
000002d0: ca0d ebbe 5b85 053e 14f4 d0bd c013 1b3f
000002e0: 1ac8 4c3e 04fc 6dbe 7982 9b3d c099 c73d
000002f0: 2aa2 0fbe 576f 563e 3f54 f13e 420e 4a3c
00000300: eda7 b2bd 92b6 633d e93b e9bd bf2d 0a3e
00000310: 84db ecbe be01 8b3c df36 633d 0c84 9e3e
00000320: 8817 7dbe 06b3 a8bc 7a52 f73c 19db ec3e
00000330: dadb 33be a150 423e 362c 9a3e 9c2b 00bf
00000340: 5b12 3e3e 1cda 283f a7ef ac3e 9edb 1fbf
00000350: 1722 39bd 303b 003f 4ad5 e93e f45d c63d
00000360: 641d 6ebe 857d 65bf 50e9 52be 6c9e 7d3e
00000370: dd03 2d3d fc16 2dbe 4e03 42be 2e7e 1fbe
00000380: b6a6 53be 4c41 da3e e37f 9d3e 43d9 553e
00000390: 01d4 f3be 39c3 ac3d b08f 84be 196c b5be
000003a0: ba91 67be 320b b83c 4005 19bf 0c6a 883e
000003b0: 853c 093e d014 b43e 7ef7 8b3e cee1 86be
000003c0: f689 123f 9af1 a5be fa4f a0be 69e6 163f
000003d0: 0943 313d f021 2a3e d796 b3be c17f 393f
000003e0: d0ac 973d 707b 66be f808 81bd fc3d 673d
000003f0: 923c 03bf cb25 293e 8cda f9be 1ff4 03bd
-0.17752796 0.49913216 -0.4665306 -0.055308815 -0.58778846 -0.19608912 -0.3083838 -0.3339455
-0.033582743 -0.10870788 -0.105086796 -0.50860536 0.074902415 0.035996694 -0.15608768 0.19265397
-0.065536544 -0.23537935 -0.06036098 0.27378133 0.41787037 -0.29671597 0.50141627 0.22750928
-0.10055532 -0.0081566125 0.059751105 -0.06753257 -0.33530438 -0.0038883819 -0.36247036 -0.40027192
0.07501401 -0.09775139 0.006637431 -0.17774081 0.088501245 0.12480044 0.18859619 0.070523255
-0.25895324 -0.07418706 0.2596686 0.069476746 -0.25988877 -0.14430226 -0.3250304 0.3415638
-0.06569725 -0.04433905 -0.02634469 -0.19666368 0.29473633 -0.32867143 -0.15449071 -0.19071458
-0.28634542 -0.19741032 -0.6778813 0.102558486 -0.41285342 0.0821675 0.1893097 0.47901264
-0.3379048 -0.25294855 -0.28402263 0.28893062 0.07479348 -0.30248752 0.109340824 0.24576187
-0.30125964 0.26661232 -0.14257021 0.38700068 -0.1686229 -0.14266224 -0.09828363 0.096054725
-0.13078046 -0.19597988 0.25794345 0.30494708 -0.10920899 0.12936957 -0.037028264 0.03305515
-0.4930388 -0.32502252 -0.2093303 -0.0047873287 0.4742415 -0.18575493 -0.35584298 -0.002909038
-0.03955594 -0.23299076 0.40466294 -0.37016916 0.63761103 0.37834442 0.09558192 -0.14245489
-0.1479168 -0.12053436 0.27889255 0.10320374 -0.12877867 0.6404345 0.051707156 -0.0240732
-0.6089894 0.18655914 0.37239617 -0.52770793 -0.027157694 0.5549592 -0.26134604 0.15246248
-0.10349028 0.01171436 0.27431405 -0.2740903 -0.2742874 0.15890825 0.012982819 0.18453589
0.10618086 -0.491366 -0.15037125 0.17301196 -0.41454586 -0.41647112 0.22405434 -0.350106
0.20043147 0.05947137 0.0689119 0.015507395 0.17819543 0.18750934 -0.34446055 0.2213774
0.19876319 1.0570679 -0.15008727 -0.5097665 -0.5601482 0.06169602 0.34134987 -0.3806756
-0.101288855 -0.021959674 -0.6602995 0.017279943 0.22005393 -0.12291566 0.07791827 -0.5763075
0.5615872 0.0026890244 -0.15535812 0.21038647 -0.4215884 -0.024299946 0.12912865 -0.13280463
0.24252205 0.38031724 -0.09093605 0.103960805 0.084576115 0.38628513 -0.14189766 0.10332507
0.29753807 0.08839405 -0.5785883 -0.009039803 -0.45908958 0.13039152 -0.10202804 0.6057701
0.19998208 -0.23240668 0.07593245 0.09746122 -0.14026704 0.2094091 0.47134587 0.012332501
-0.087234356 0.055594034 -0.1138838 0.13494013 -0.46261227 0.016968604 0.05547225 0.3096012
-0.24716008 -0.020593178 0.030190695 0.46260908 -0.17564335 0.1897607 0.30111855 -0.5006654
0.1856169 0.6595781 0.3377659 -0.62444484 -0.045198526 0.5009031 0.4567054 0.09685889
-0.23253399 -0.8964465 -0.20596814 0.24767464 0.042240012 -0.16903299 -0.18946573 -0.15575477
-0.20669064 0.42627943 0.30761632 0.2088366 -0.47622684 0.08435673 -0.25890875 -0.35434034
-0.22614184 0.022466276 -0.59773636 0.26643407 0.13401993 0.3517213 0.2733726 -0.2634415
0.5724176 -0.3241089 -0.31311017 0.5894533 0.04327682 0.16614509 -0.3507602 0.7246056
0.07406008 -0.22508025 -0.06300539 0.056455597 -0.512643 0.16518323 -0.4879955 -0.032215234

_actor_critic.critic.preprocess.model.model.0.bias f4 [32]
00000000: c29a af3e 052b 843e b7cc 573d 9f42 bdbe
00000010: 0c05 f53e 8a99 673e dfc3 cf3d f22a 94bc
00000020: 3e33 2fbe fad4 b63e 67a1 b63e be08 333e
00000030: e51f 113e 7718 3e3e a6f5 bcbd b8b9 16bd
00000040: 6705 393d 68be 883e 153f 9a3e 70ba 963e
00000050: c5cf 663e 311f 9b3e 0bd6 64bc ffaf 4b3e
00000060: a7c8 47bc b6bd 7c3e 2590 cd3c 7195 113d
00000070: 525c b53e 8909 80bd 0665 8abe 0f73 1a3e
0.34297758 0.2581407 0.052685466 -0.3696489 0.47855413 0.22617164 0.10144781 -0.018086884
-0.17109391 0.35709363 0.35670015 0.17483804 0.14172323 0.1856402 -0.09226541 -0.03679821
0.045171168 0.26707768 0.30126253 0.29439116 0.22540195 0.30297235 -0.013967047 0.19891356
-0.012193835 0.24681744 0.025093148 0.03554291 0.35421997 -0.06251819 -0.270302 0.15082954
